modelo_ensemble.pt (torch, 5173 bytes, 6 tensors)

rede.0.weight f4 [20, 14]
000000 ab c5 35 3e af 96 87 3d 53 c0 76 3d 2a 6d 1b 3e
       0.17751186 0.066205375 0.06024201 0.15178362
000010 b7 39 0f be 47 89 91 3e 82 90 50 bd de 30 0f be
       -0.1398686 0.28425047 -0.050919063 -0.13983485
000020 d2 eb 4d be 07 eb 65 be 41 37 67 be 8f 6d 4e be
       -0.2010949 -0.22452937 -0.22579671 -0.20158981
000030 df d7 41 3e 88 d7 a9 3d e5 7b a0 3d 2d fb 96 bd
       0.18930005 0.082930624 0.07836131 -0.07372127
000040 e2 ff 8b bc 36 4d 61 be 11 75 d1 3d b1 0d 1a 3e
       -0.017089788 -0.2200211 0.10227407 0.15044285
000050 ec 6d b2 3d 43 e0 2f 3b 5f 36 1e be 86 aa b8 bd
       0.08712372 0.0026836551 -0.15450428 -0.090169
000060 a5 88 fa 3d 10 0b 51 be d3 87 38 3e 5f a6 51 3d
       0.12233094 -0.20414376 0.18020563 0.051184054
000070 e3 ed b8 3d 50 59 61 3d e8 79 60 be 6c 29 78 3e
       0.09029748 0.055016816 -0.21921504 0.24234551
000080 e4 03 23 be 0f c9 59 3e 3a e8 15 3e b8 31 c1 3d
       -0.15919453 0.21268104 0.14639369 0.09433311
000090 19 3a ff bd c2 5a 3e be c1 13 3d be 1d a3 8b bd
       -0.12462253 -0.18589309 -0.18464567 -0.06818221
0000a0 10 ca a6 3d 4e 8f 23 3e 66 65 07 be c9 48 4b be
       0.08144009 0.15972635 -0.13222274 -0.19851984
0000b0 8c ef 15 3d 17 4f 4b bd 1d ef 48 3e 63 1b d0 bd
       0.036605403 -0.049635973 0.19622464 -0.101614736
0000c0 7a 8f 4b 3e a3 97 6d 3e 3b c1 5f be e9 6e 27 3e
       0.1987895 0.23202376 -0.21851055 0.16350903
0000d0 56 a6 6a 3e 6f fb 90 be d2 6e 5e be 33 9b 4d 3e
       0.22915015 -0.2831683 -0.21721962 0.20078735
0000e0 72 d8 7a be 39 f5 28 be ef 90 6d bd dd 0b 42 3e
       -0.2449663 -0.16499795 -0.057999548 0.18949838
0000f0 16 1d d5 bc 2f 25 48 3e d1 eb 6c be f1 6f 2f bc
       -0.026014846 0.19545434 -0.23136832 -0.010707841
000100 a6 2e 86 be 0b 80 85 be 2e e8 12 3e 06 77 4b be
       -0.26207465 -0.26074252 0.14346382 -0.19869623
000110 6e f8 ae 3d 21 4f 48 bd b2 59 b7 bd 56 ea 3f 3e
       0.08543478 -0.04890359 -0.08952655 0.18741736
000120 36 69 83 3e 83 6e 51 3d 62 32 b9 bd 0c ee 8b 3e
       0.25666207 0.051130783 -0.09042813 0.27330053
000130 49 91 6d be 71 b8 c6 bc b6 55 0a bc a8 79 f0 3d
       -0.23199953 -0.02425787 -0.008443287 0.11741954
000140 a9 b9 ff bd 42 c6 3a 3e 29 5b 3b 3d a8 68 42 bd
       -0.12486584 0.18239692 0.045741234 -0.04746309
000150 53 a8 1a 3e 0f 17 84 be b2 b2 0c 3c 8f 99 8d be
       0.15103273 -0.25798842 0.008587526 -0.27656218
000160 f5 30 88 be 77 9b a2 bd 29 3a 47 be ae 71 6c 3e
       -0.2659985 -0.07939809 -0.1945578 0.2309024
000170 8b bf b2 bd 72 8b 20 3e 9a 96 80 3e 6e a2 a3 3d
       -0.0872794 0.15678194 0.251149 0.079899654
000180 f6 35 98 3e 76 04 af 3d 4a 22 0e be 84 00 50 be
       0.2972867 0.08545773 -0.13880268 -0.20312697
000190 3d fb c3 3b 5d c1 7c be 80 1d d3 3d 4f 25 cd 3d
       0.0059808777 -0.24683137 0.10308361 0.10016882
0001a0 b9 f5 59 be e2 89 79 3d 9c 1b fd 3c 34 f3 43 3d
       -0.21285142 0.06092251 0.030896954 0.04783936
0001b0 da 30 bd bd 4c fd 0b 3e 53 bd 29 be f2 a8 e0 3c
       -0.09237833 0.13670844 -0.16576128 0.02742431
0001c0 b0 30 37 3e 8a 0a 72 3e 72 c5 58 bd 39 4e 0d be
       0.17889667 0.23636833 -0.052922674 -0.13799371
0001d0 dd 92 f8 3d 00 41 ef 3d 9e db da bd 1a e9 74 3e
       0.12137387 0.1168232 -0.1068642 0.23917046
0001e0 90 04 28 be b1 38 78 be d0 b9 6c 3e c4 4a 89 be
       -0.1640799 -0.24240376 0.23117757 -0.26814854
0001f0 59 29 d6 3d 64 9d cb bd 21 f0 ca bc ad bf 61 3d
       0.10457105 -0.09942129 -0.024772706 0.055114437
000200 63 8d 87 be 40 bd 11 3b 80 56 1c 3d 58 fd 87 bd
       -0.26475057 0.0022238046 0.03816843 -0.06640118
000210 e9 bb 90 bc 73 0e d4 3d 47 ad 23 be c6 61 8c be
       -0.017667728 0.103543185 -0.15984069 -0.27418345
000220 86 f2 51 3e 8b fd 11 be f8 f0 84 3e b0 f3 18 3d
       0.20502672 -0.14256875 0.25965095 0.037341774
000230 d2 27 86 be e9 76 2f be ad 1f 15 3e 3f 2d ba bd
       -0.26202255 -0.17135204 0.14562865 -0.09090661
000240 1c 22 43 3e 6e 68 24 3e d6 34 80 3e 83 dc 62 3e
       0.1905598 0.16055462 0.2504031 0.22154431
000250 0d c8 62 bd 98 8f fe bd 1e 4c 49 be fe fb 96 bd
       -0.055366565 -0.12429732 -0.19657943 -0.073722824
000260 08 fa f7 3d d9 19 57 be a1 a4 73 3e 5d df 22 bd
       0.121082366 -0.21005954 0.2379327 -0.039763797
000270 21 8e 64 be 5d be 8b 3c 39 dc da 3d ff 2d 74 bc
       -0.22319843 0.017058546 0.106865354 -0.014903544
000280 24 84 3f bd bc 4c 7c 3e be e7 cc bd 15 be a2 3d
       -0.04675688 0.24638647 -0.10005139 0.079464115
000290 f9 9e 57 3e 9e e5 0e be 56 bc 03 be 4e ed 80 bd
       0.21056737 -0.1395478 -0.12864813 -0.06295262
0002a0 b2 95 c1 bc 5e 4c 44 3e 14 b3 61 3e 32 58 0e 3e
       -0.02363095 0.19169757 0.22040969 0.13900831
0002b0 96 54 c7 3c 63 b4 29 be ff 86 66 be 62 fd 24 be
       0.024332326 -0.16572718 -0.22512434 -0.16112283
0002c0 f3 b2 56 3e c7 34 ca 3d d3 e0 35 bd 8e d1 4d 3e
       0.20966701 0.09873348 -0.044403862 0.2009947
0002d0 0f 9d d7 bd 32 eb 88 be 93 ad 9d 3c d1 84 3a 3e
       -0.105280034 -0.2674194 0.019247806 0.18214728
0002e0 99 b4 c9 3d 02 d0 6b 3e 26 69 3f bd 56 7e 2c be
       0.098488994 0.23028567 -0.046731137 -0.16845068
0002f0 3a 0c 77 3d 4e a9 47 3e bb b0 99 bc d8 00 cc 3c
       0.060314395 0.19498178 -0.01876103 0.024902746
000300 61 d2 7f be 97 a8 25 3d ae 10 83 be 8a b5 18 be
       -0.24982597 0.040443983 -0.25598663 -0.14913002
000310 e5 7b 3e be 3e 9d a7 3d f8 e2 71 3e 40 2a 6a be
       -0.1860195 0.081842884 0.23621738 -0.2286768
000320 2e b7 c2 3d c4 03 f8 3b c2 b6 cf bd 7c 92 d5 bb
       0.09507595 0.0075688083 -0.1014228 -0.0065177064
000330 bb 6c 81 be 3f 34 4f be cd 22 49 3d d1 03 38 3e
       -0.25278267 -0.20234774 0.049105454 0.17970206
000340 da b4 da 3d 19 65 68 3e 5a 89 fd bc 6a 88 39 be
       0.10679026 0.22694816 -0.030949283 -0.18118444
000350 ef d3 0a be 18 46 97 bc 90 aa ed b8 e5 d9 d9 bd
       -0.13557409 -0.01846604 -0.000113328104 -0.10637263
000360 42 cc 89 be 1e 44 f2 bd 5a b2 03 bd be 89 1b 3e
       -0.2691365 -0.118293986 -0.03215251 0.15189263
000370 ac 58 87 be be a1 13 3e 4d 7a 6b be 9c 01 63 3e
       -0.2643484 0.14417168 -0.22995873 0.22168583
000380 d8 b4 7c 3e 24 6e 77 3e 4a 7e 0d 3e 58 a1 95 bd
       0.24678361 0.24163109 0.13817707 -0.073061645
000390 03 78 a5 3c 90 d2 08 3e 48 89 b1 3c 8a ed 8f 3e
       0.020198828 0.13361573 0.021671906 0.28110915
0003a0 86 79 c6 3d bb 62 83 3d 77 33 5d 3e 85 ab 7b bd
       0.096911475 0.06415316 0.21601664 -0.06144287
0003b0 03 f5 8a 3d 25 6f 85 bd 5f a2 3a be 2e 2b a1 3b
       0.067850135 -0.0651534 -0.18226002 0.0049184775
0003c0 4c a8 94 3d ab 62 64 be 00 8b c4 3d ae cf 7b bd
       0.072586626 -0.22303264 0.09596825 -0.061477356
0003d0 13 86 a3 3d ba 90 d3 3d b4 50 2e 3e cd fd ef bd
       0.07984557 0.10330339 0.17022973 -0.117183305
0003e0 af 2c a1 3d 27 a7 cf bd f6 c4 a6 bd cb e1 50 3e
       0.07869851 -0.10139304 -0.08143036 0.20398633
0003f0 0a 42 6a 3e a9 9a 52 3e 9d 50 25 3e a9 c7 4f 3e
       0.22876754 0.2056681 0.16144033 0.20291008

rede.0.bias f4 [20]
000000 9f 37 33 3e 3a 91 6d 3e 89 c8 22 3e 4e cf 19 3e
       0.17501687 0.23199931 0.1589681 0.15020487
000010 ec 4d c3 bd 5d 0e 1d 3e 64 c5 7a 3e a2 18 3a 3e
       -0.09536347 0.1533751 0.24489361 0.18173459
000020 11 0e 49 be 41 08 c5 3d 6e 10 43 be 4a 8a b8 bd
       -0.19634272 0.09620715 -0.19049236 -0.090107515
000030 0e 1b 3b 3e 95 77 2c 3e f8 57 9c 3d 82 a4 90 be
       0.1827204 0.16842492 0.07633966 -0.2825051
000040 51 6a 2f 3d e6 ff 59 3e c2 9f 54 3e 34 b0 6c 3e
       0.042826 0.21289024 0.20764068 0.23114091

rede.2.weight f4 [10, 20]
000000 a5 d7 1a be 27 38 01 3e 3d 39 32 bd 06 1b 7f bd
       -0.15121324 0.12619077 -0.043511618 -0.06228163
000010 e5 e0 69 bc 79 29 18 3e 84 6a c0 3c 86 36 ae bd
       -0.01427481 0.1485957 0.02348829 -0.08506493
000020 02 f7 61 be 06 92 20 3e 88 6b 88 bc f0 ca c4 bd
       -0.22066882 0.15680704 -0.016652837 -0.0960902
000030 af 68 4e be 71 ef 5f be 90 0d 7c be 40 cd 2d 3e
       -0.20157121 -0.21868683 -0.24614549 0.16972828
000040 ec 32 78 3d 1b 68 f0 3d 25 0d 42 3e f8 c3 82 3e
       0.060595438 0.117386065 0.18950327 0.25540137
000050 02 48 ff bc 9e 01 ab 3d a5 b6 63 3b ec 1b ff bd
       -0.031162266 0.08349918 0.0034746316 -0.124564976
000060 8b 24 3a 3e 41 b3 c2 3d 3a b8 2d be bd e1 61 bd
       0.18178003 0.09506846 -0.16964808 -0.05514692
000070 3a 0e 56 be 73 eb 96 3d c1 ff 1b bd a5 5e 0c 3d
       -0.20903865 0.07369127 -0.038085703 0.034269948
000080 dd 3c 1d be 4f 9b 56 be 3c 7d 95 3d bf 55 2e 3e
       -0.15355249 -0.20957683 0.07299277 0.17024897
000090 85 ab 37 3e 4e 93 d2 bd d6 33 27 be 66 85 ec bd
       0.17936523 -0.102820024 -0.16328368 -0.11548881
0000a0 f0 a0 ae 3d cd 98 7c 3e e0 d0 39 be 69 c6 9b bb
       0.0852679 0.24667664 -0.18146086 -0.004753877
0000b0 c7 a7 48 3e 31 b8 11 3e f0 9b 02 3e ca cd 06 3e
       0.19595252 0.1423042 0.12754798 0.1316444
0000c0 81 a4 65 be 54 e4 9d 3d 43 a7 3a bd 31 d5 5c be
       -0.22426035 0.07709566 -0.04556967 -0.21565701
0000d0 27 ac 18 bc 00 4f 68 be a6 eb 0d 3d 9a 36 25 be
       -0.009318388 -0.22686386 0.03464856 -0.1613411
0000e0 72 ea aa 3d 1b 3e 3b 3e 79 e4 e2 3d aa a8 73 3d
       0.08345498 0.1828541 0.11078734 0.059487022
0000f0 3a 26 21 bd 7d 06 f0 3d d1 8b 7a be b7 04 37 3e
       -0.039343096 0.117199875 -0.24467398 0.17872892
000100 67 8f b2 bd de 65 bf bd d3 7a a3 3a a6 94 5e 3e
       -0.08718758 -0.093456015 0.0012472518 0.21736392
000110 1a 6f 77 3d fa 52 1a be 6e 71 0b be 03 68 73 3d
       0.06040869 -0.15070716 -0.13617489 0.059425365
000120 22 0f 69 3e 27 ad 00 be f0 84 4a bd ab 71 d3 bd
       0.22759679 -0.12566052 -0.049443185 -0.10324415
000130 02 c4 a9 bd b4 d1 46 be b0 3e 70 bd 93 21 38 3e
       -0.08289339 -0.19415933 -0.058653533 0.17981558
000140 a5 9c 38 3e 72 f1 06 3e 0b b3 48 3e fe 11 1f be
       0.18028505 0.13178042 0.1959955 -0.15534207
000150 11 f4 e5 bd 24 68 28 3e 12 0f 59 3e 9d 09 62 3a
       -0.112281926 0.16445976 0.21197155 0.00086226483
000160 90 84 1e be 20 c5 ed bc 63 25 a0 bd e6 5c db bb
       -0.15480256 -0.02902466 -0.07819631 -0.006694424
000170 e3 b7 c3 bd 43 3c f0 bd da a2 53 3e 88 f6 27 3d
       -0.09556558 -0.11730244 0.20667592 0.041006595
000180 7a 31 c3 3d 81 3e 21 3e 39 f9 cb bd 22 21 2c 3e
       0.09530921 0.157465 -0.09959645 0.16809514
000190 63 fa c4 bd 73 21 48 3e de d6 4a 3e 42 d1 3d 3e
       -0.0961807 0.1954401 0.19808528 0.18536857
0001a0 5a 59 a9 bd 3e 3a fc bd d5 d7 57 be 1a 88 20 3d
       -0.082689956 -0.12315796 -0.21078427 0.039192297
0001b0 38 e3 36 3e e9 65 46 be b6 0d 47 be d6 a9 14 be
       0.17860115 -0.19374813 -0.19438824 -0.14517912
0001c0 b4 88 fe 3a 81 0e 1d bd 51 6e 31 bb 84 1a 82 3d
       0.0019419403 -0.03834391 -0.002707381 0.06352714
0001d0 5c 86 c9 bd e8 1a dd 3d b1 d5 80 bd bb 92 fc 3d
       -0.0984008 0.107961476 -0.062907584 0.12332674
0001e0 db ee 3a 3e 9b 3e d9 bd e8 ab b4 bd ec be e5 bd
       0.18255179 -0.10607644 -0.08821851 -0.11218056
0001f0 ff 54 9e bd 02 26 28 be cc 13 af 3c 2e 09 18 3e
       -0.077310555 -0.16420749 0.021371745 0.14847252
000200 7c 36 00 be a4 9a 8f bc fa 34 e9 bd e2 9f 76 be
       -0.12520784 -0.017529793 -0.113870576 -0.24084428
000210 36 8f ee 3d 1b f3 42 3e 6b 51 3c 3e a2 f8 0e 3e
       0.11648409 0.1903805 0.18390433 0.13962033
000220 3e ee 65 be ca 26 85 3d 04 b7 39 bb fe 13 8c bd
       -0.22454163 0.06501539 -0.0028337846 -0.06839751
000230 fd 66 2a 3e e4 23 35 be f8 c5 20 be b1 d0 62 3c
       0.1664085 -0.17689472 -0.15700519 0.013843701
000240 65 7c db bc 68 ed 88 3d 71 03 e3 3d 50 28 38 bb
       -0.026792714 0.06685907 0.11084641 -0.00281002
000250 db db b2 3b 51 26 bb 3d 44 ad 1a be 1b 91 93 3d
       0.0054583377 0.09138168 -0.15105158 0.07205411
000260 6c 38 55 3d 22 15 03 bd 95 47 2b 3d a6 b6 25 bd
       0.05205576 -0.032002576 0.041816313 -0.04045739
000270 94 3f e5 3d 00 c7 5a 3d dd a0 14 be f5 2b 64 3e
       0.11193767 0.053412437 -0.1451449 0.22282393
000280 2b 6b 8d 3d 2c a1 a6 bb 3f e4 a2 3d 16 33 2b 3e
       0.06905206 -0.005085131 0.07953691 0.16718706
000290 5e 0b dd bd da dc 74 3c 17 5e 80 bc 2e da 72 3d
       -0.10793184 0.014945233 -0.015669866 0.059290104
0002a0 61 ef 90 3d 56 8b 00 3e 45 46 dd bd cf 31 4b 3d
       0.07076908 0.12553152 -0.108044185 0.049608048
0002b0 d6 48 e3 bd 3f 1a aa bd 13 d7 96 bd 3c ed f0 3d
       -0.11097877 -0.08305787 -0.07365241 0.11763999
0002c0 48 64 44 3e b7 92 46 be c1 af 5d be db d0 f7 3d
       0.1917888 -0.19391905 -0.21649076 0.12100383
0002d0 c5 fb 0c 3d 6e b6 8a 3c fc e3 1a bd 9b 6e cd bc
       0.034419794 0.016932692 -0.03781508 -0.025077155
0002e0 d7 f8 cb 3d ab 32 89 bb 20 fc 8c 3d 3b fa d2 3d
       0.09959572 -0.0041869483 0.068840265 0.10301634
0002f0 92 6d f0 3d c2 81 f7 bd 9b c4 9d bd ae f6 e2 bd
       0.11739649 -0.12085296 -0.07703515 -0.11082207
000300 64 b4 63 3e 73 d0 45 3e 59 5a 5f bd 07 ea c9 bd
       0.22236782 0.19317798 -0.05452952 -0.0985909
000310 51 d7 e9 bc 1b db fd 3d 25 c6 8b 3d 9a 49 d7 3c
       -0.028545054 0.12395307 0.068249024 0.026280213

rede.2.bias f4 [10]
000000 f9 22 30 be a3 73 9e 3b 8f 5e 29 3e bb 0c c6 bd
       -0.17200841 0.0048355623 0.16539977 -0.09670397
000010 e8 b7 c7 3d 6b a0 88 bc 40 2a 05 3d fe 83 7d 3d
       0.09751874 -0.016678056 0.032510996 0.061893456
000020 06 ec 26 3e 2f da 6e bd
       0.16300973 -0.058313545

rede.4.weight f4 [2, 10]
000000 89 34 ab be 57 c6 dd 3c d6 84 26 3e ee 9e 46 be
       -0.3343852 0.027072115 0.1626161 -0.19396564
000010 c9 8e 77 3e 54 5f 58 be 9d 34 43 be 81 a7 2a 3e
       0.24175562 -0.21130115 -0.19063039 0.1666546
000020 7a eb 08 3d ff 1b fc bd 77 70 91 3e e2 41 b1 3b
       0.033427693 -0.12310027 0.28406116 0.005409465
000030 1f 3c 34 be 54 06 a3 bc 97 54 32 3e 43 89 16 be
       -0.1760106 -0.019900478 0.17415081 -0.14700799
000040 dd 46 92 be 98 82 89 3e 5e 78 4a 3e a2 e2 64 3e
       -0.2856969 0.26857448 0.19772479 0.22352079

rede.4.bias f4 [2]
000000 14 3a 54 be ad 78 78 be
       -0.2072528 -0.24264784
