modelo_contexto.pt (torch, 5173 bytes, 6 tensors)

rede.0.weight f4 [20, 14]
-0.10063143 -0.11447509 -0.29664606 -0.17308739 -0.3263722 -0.268992 0.02609291 -0.10893614
-0.18696432 0.031767577 -0.30438283 0.052009948 -0.04918556 0.42244563 0.14361207 0.051247433
0.02665985 0.1984165 0.13258316 0.053704258 0.1344483 -0.1038273 0.11991818 -0.041939776
-0.008055788 -0.17749342 -0.31695592 -0.37029487 -0.028504506 0.016789384 -0.18419954 0.07477188
0.18494253 -0.023616454 -0.0011935869 -0.21961631 0.15176679 0.041622624 -0.086496 0.100732274
-0.040422216 -0.23770924 -0.10401099 -0.13989535 0.08763821 0.17776076 -0.22886099 0.06708457
0.011096957 -0.0838117 0.2283357 -0.089226395 -0.12618734 0.15700437 0.00996852 -0.34434268
-0.18288888 0.20637663 -0.0998368 -0.08147125 0.18924095 0.119509935 -0.35179445 0.1059884
0.2842519 0.062362067 0.1996162 0.24903385 -0.095641665 -0.04917512 -0.13826048 0.24733968
-0.05384754 -0.0824027 -0.026237858 -0.02745663 -0.1854232 -0.19247203 0.17772835 0.20661487
0.08787899 0.0864704 0.04926454 -0.3367085 0.18492599 0.19289269 -0.20012249 0.2817284
-0.23342241 -0.02232041 -0.02562946 0.23172191 0.04130058 -0.20099656 -0.2304377 -0.23230183
-0.36072153 -0.15182364 0.14815119 -0.21421197 -0.20227472 0.03241966 0.011490398 -0.22252974
-0.26187634 -0.015973039 -0.18741642 -0.062701486 0.38617966 0.020894976 -0.3412289 -0.10900695
0.09024498 -0.18134026 -0.2111123 -0.1171062 -0.24689123 -0.03651383 0.0057777218 0.15721741
0.21966387 0.081756294 0.2874307 0.21313155 -0.20041941 0.36350214 -0.20671457 0.19464259
-0.1003462 0.08663536 0.12863018 -0.26085094 0.3101513 -0.14341548 0.15490177 0.14143649
0.15995711 0.07482388 0.02843062 -0.11113711 -0.10496425 0.24675989 0.14625812 -0.12116278
0.09996491 -0.014783652 -0.06342 -0.1732905 -0.00019323631 -0.16499577 0.1699145 -0.09172418
0.21954134 -0.25381625 0.20723702 0.16233312 0.1825531 0.23409428 -0.17359938 0.13708659
-0.017480863 0.06402087 0.08193248 -0.024804378 -0.31124198 0.018134512 -0.1451296 0.19332466
0.13733771 -0.23329738 0.024431776 0.11162434 0.050793365 -0.027513938 0.14189085 0.033248324
-0.11618858 0.02527874 -0.113052405 -0.18787868 -0.2293805 -0.3569058 0.29609984 0.14964451
0.09189138 0.23899667 0.25923467 0.34796286 -0.045981593 0.012249868 0.31077582 0.013095895
0.019991431 0.1353239 -0.12476292 0.41481248 -0.1840505 0.19580704 0.0025666635 0.031183282
-0.054653708 0.14842987 -0.104327366 -0.24479493 0.079433106 -0.033541355 0.061191853 -0.023396416
0.103418015 0.372506 0.054954093 0.041906316 0.20727822 -0.032172333 -0.27212417 0.14572997
-0.33493295 -0.049576167 0.06050643 -0.10691388 -0.21450351 0.21182863 -0.286581 -0.3576587
0.2135741 0.172041 -0.2195188 -0.19393659 0.081849605 -0.16351007 -0.20222159 -0.24770142
-0.15201263 0.25797716 0.1516778 -0.10025648 -0.04227552 -0.23719153 0.30003506 0.18400855
-0.10674707 0.1817983 -0.06898519 0.2055444 -0.14926101 -0.089401215 -0.1565841 0.32608163
0.3334102 0.12187057 0.22107637 0.095998496 -0.05806521 -0.33736604 -0.26123336 -0.0729089
00000000: da17 cebd ea71 eabd fee1 97be d23d 31be
00000010: 421a a7be 52b9 89be ccc0 d53c e919 dfbd
00000020: 9373 3fbe b81e 023d 11d8 9bbe 6208 553d
00000030: cc76 49bd cb4a d83e 0b0f 133e d4e8 513d
00000040: c265 da3c b22d 4b3e e1c3 073e fff8 5b3d
00000050: d1ac 093e 68a3 d4bd aa97 f53d 0bc9 2bbd
00000060: 6dfc 03bc d6c0 35be 0c48 a2be 4a97 bdbe
00000070: 4882 e9bc e489 893c ce9e 3cbe 0022 993d
00000080: 9361 3d3e 4b77 c1bc 2172 9cba 19e3 60be
00000090: c168 1b3e 7c7c 2a3d d124 b1bd b94c ce3d
000000a0: c491 25bd 0d6a 73be b703 d5bd ba40 0fbe
000000b0: a97b b33d eb06 363e 895a 6abe a363 893d
000000c0: 03d0 353c 78a5 abbd d5d0 693e 54bc b6bd
000000d0: 4137 01be c1c5 203e 0153 233c af4d b0be
000000e0: 3947 3bbe 6554 533e 3c77 ccbd 66da a6bd
000000f0: 61c8 413e a0c1 f43d 671e b4be 7210 d93d
00000100: 7789 913e 5e6f 7f3d 3068 4c3e bb02 7f3e
00000110: c7df c3bd da6b 49bd 2894 0dbe 9d46 7d3e
00000120: 3d8f 5cbd bfc2 a8bd c7f0 d6bc baec e0bc
00000130: 94df 3dbe 6317 45be 6cfe 353e d992 533e
00000140: e6f9 b33d 6517 b13d 9dc9 493d 0e65 acbe
00000150: 3d5d 3d3e a985 453e e9ec 4cbe b43e 903e
00000160: 4906 6fbe 4bd9 b6bc e0f4 d1bc 8248 6d3e
00000170: cc2a 293d 0bd2 4dbe dcf7 6bbe 88e0 6dbe
00000180: 7eb0 b8be a877 1bbe f2b4 173e 625a 5bbe
00000190: 1b21 4fbe 7aca 043d 3942 3c3c d6de 63be
000001a0: a814 86be e4d9 82bc 17ea 3fbe a369 80bd
000001b0: 57b9 c53e f12b ab3c 8eb5 aebe 093f dfbd
000001c0: 5cd2 b83d 43b1 39be d32d 58be 60d5 efbd
000001d0: 0ed1 7cbe 878f 15bd 0b53 bd3b 9afd 203e
000001e0: 91ef 603e d86f a73d 1e2a 933e 283f 5a3e
000001f0: bf3a 4dbe f41c ba3e fcac 53be 6350 473e
00000200: 4f82 cdbd e16d b13d a1b7 033e 418e 85be
00000210: 27cc 9e3e 82db 12be 929e 1e3e bad4 103e
00000220: cccb 233e 433d 993d 55e7 e83c da9b e3bd
00000230: 7ff7 d6bd a0ae 7c3e b0c4 153e 3124 f8bd
00000240: 67ba cc3d 2137 72bc 58e2 81bd 1173 31be
00000250: 7a9f 4ab9 a7f4 28be 11fe 2d3e e3d9 bbbd
00000260: 72cf 603e 34f4 81be f135 543e a73a 263e
00000270: 33ef 3a3e 69b6 6f3e 09c4 31be 6d60 0c3e
00000280: 0734 8fbc 601d 833d 37cc a73d 8d32 cbbc
00000290: 1c5b 9fbe d48e 943c db9c 14be e6f6 453e
000002a0: 42a2 0c3e 82e5 6ebe 2625 c83c 4d9b e43d
000002b0: b40c 503d e964 e1bc d64b 113e 652f 083d
000002c0: 47f4 edbd 5c15 cf3c 0588 e7bd 4563 40be
000002d0: b9e2 6abe 5bbc b6be 669a 973e 693c 193e
000002e0: 8c31 bc3d 8bbb 743e 68ba 843e 3028 b23e
000002f0: 3257 3cbd acb3 483c 021e 9f3e 2a90 563c
00000300: 12c5 a33c 5992 0a3e b483 ffbd 4d62 d43e
00000310: bc77 3cbe a481 483e 7835 283b 1574 ff3c
00000320: 91dc 5fbd 00fe 173e 96a9 d5bd 86ab 7abe
00000330: d3ad a23d a962 09bd 4fa4 7a3d d7a9 bfbc
00000340: d3cc d33d 1bb9 be3e 8b17 613d f5a5 2b3d
00000350: be40 543e 23c7 03bd dc53 8bbe 3d3a 153e
00000360: 557c abbe 6110 4bbd 97d5 773d aaf5 dabd
00000370: cfa6 5bbe 9be9 583e bfba 92be 0b1f b7be
00000380: 2bb3 5a3e 842b 303e 89c9 60be 5097 46be
00000390: c4a0 a73d 2f6f 27be 2d13 4fbe 71a5 7dbe
000003a0: 33a9 1bbe 9515 843e 6d51 1b3e 4553 cdbd
000003b0: 1829 2dbd 56e2 72be 329e 993e bd6c 3c3e
000003c0: 359e dabd 5529 3a3e 1b48 8dbd 3b7a 523e
000003d0: e1d7 18be fc17 b7bd 9557 20be 2cf4 a63e
000003e0: beb4 aa3e 4797 f93d d861 623e dc9a c43d
000003f0: c9d5 6dbd 3ebb acbe 61c0 85be 4351 95bd

rede.0.bias f4 [20]
-0.13082238 -0.0026079176 0.30196145 0.31166366 0.2532559 0.15958394 0.1950706 0.04135598
-0.12396954 0.33792144 0.26719669 0.019700278 0.23408653 0.1273797 0.0950813 0.23351163
0.171561 -0.027003065 0.097156495 0.07429259
00000000: 4df6 05be 99e9 2abb b19a 9a3e 6192 9f3e
00000010: c2aa 813e f969 233e 96c0 473e e364 293d
00000020: bee3 fdbd 0a04 ad3e 01ce 883e 7a62 a13c
00000030: 61b4 6f3e d36f 023e fcb9 c23d ac1d 6f3e
00000040: b0ad 2f3e 8835 ddbc fcf9 c63d b726 983d

rede.2.weight f4 [10, 20]
0.23072067 -0.19140944 -0.11248468 -0.21210767 -0.012515764 -0.02937011 0.2372813 -0.017219156
0.22302684 -0.13837199 0.07253253 -0.04258872 -0.16171171 0.06962967 0.017769244 -0.18753141
0.0657004 0.083018646 -0.16191383 -0.074075304 -0.025478829 -0.016299315 0.080450945 -0.06836641
-0.097860575 0.2679291 0.091244735 -0.05960558 -0.19638416 0.095880605 -0.089806706 -0.23439074
0.081484005 0.10581544 -0.006147677 -0.12746492 0.17957799 -0.015356012 0.26937357 0.20243242
-0.18132634 0.108971484 -0.1544477 0.05200535 -0.039601408 0.1651905 0.19556576 -0.12810908
-0.03734219 0.07199196 -0.013282956 -0.06698005 -0.21328524 -0.16417275 -0.14772059 -0.036406375
-0.18068941 -0.14793442 0.036235638 -0.11991722 0.12573984 -0.11191327 -0.05670859 0.062972456
-0.16107488 -0.14075805 0.016353866 0.12737454 0.32920322 0.022106664 -0.2860838 0.20518523
-0.19863605 0.24693048 0.128989 -0.057373088 -0.05072163 0.0837445 -0.024468483 0.049240552
-0.22055852 0.3371366 0.32339427 0.11468363 -0.00589583 0.17691603 0.38288042 0.05569936
-0.046108548 0.06861956 0.1729477 -0.059532534 0.3557851 0.12219588 -0.31402212 0.2861179
0.19724527 0.15032263 0.24519782 0.21175748 -0.13052157 -0.109696716 -0.058850076 -0.120305374
0.0757158 -0.10552719 0.27241632 -0.20601243 0.065180324 0.21407682 -0.26239526 0.22016984
-0.28862283 0.291348 -0.040329557 -0.27988115 0.028046425 0.30350795 0.06355747 -0.25079602
0.104632854 0.40216917 0.22239634 0.29056567 0.12897529 0.022153458 0.28290117 0.36745787
-0.07625728 0.3762457 0.17879456 -0.08219224 0.030237304 -0.24882607 -0.043418486 0.26555976
0.14246878 -0.13342631 0.32738155 0.16828856 0.3236068 -0.0133036 -0.325914 -0.24364363
0.11101396 -0.045142118 0.07984722 0.12255286 0.18035801 0.16606168 -0.05570956 0.06822576
-0.19349416 0.19497545 0.15265235 -0.17325619 -0.22498044 0.13981818 -0.15434562 -0.22518899
-0.049757645 0.28238618 0.32215604 0.2240168 0.2976851 0.1689326 0.20302817 0.05574074
-0.19739759 0.04896018 0.046943672 -0.13562647 0.31643564 -0.035729267 -0.19134627 0.26438603
0.04500084 0.07121138 0.14051266 0.05737541 -0.14848606 0.36897644 -0.03985856 0.104535975
0.23974317 0.17580438 0.26385278 0.27962092 -0.2784071 0.1260392 0.1551876 -0.1167661
0.14060955 -0.13681842 -0.19984415 0.19350627 0.19047953 -0.17056674 0.29194215 0.2987129
00000000: 0a42 6c3e d600 44be 5e5e e6bd c132 59be
00000010: eb0e 4dbc 9699 f0bc def9 723e 300f 8dbc
00000020: 2661 643e 63b1 0dbe ef8b 943d 8271 2ebd
00000030: c197 25be 009a 8e3d ce90 913c 3c08 40be
00000040: ee8d 863d ae05 aa3d bdcc 25be cbb4 97bd
00000050: fab8 d0bc 2486 85bc 77c3 a43d b003 8cbd
00000060: 206b c8bd 012e 893e 85de ba3d fb24 74bd
00000070: ee18 49be 0d5d c43d 94ec b7bd 2004 70be
00000080: 16e1 a63d c4b5 d83d 7472 c9bb 2a86 02be
00000090: 4be3 373e c897 7bbc 55eb 893e 724a 4f3e
000000a0: 9dad 39be 712c df3d 8a27 1ebe 9003 553d
000000b0: 1635 22bd b327 293e 6442 483e 072f 03be
000000c0: 20f4 18bd 8570 933d c1a0 59bc d62c 89bd
000000d0: 7267 5abe e71c 28be 1144 17be da1e 15bd
000000e0: a506 39be 1f7c 17be d26b 143d 2997 f5bd
000000f0: f2c1 003e c932 e5bd 4447 68bd b4f7 803d
00000100: d0f0 24be e122 10be 8bf8 853c 796e 023e
00000110: 538d a83e 0919 b53c 9379 92be 141c 523e
00000120: 4067 4bbe 58db 7c3e b115 043e 0b00 6bbd
00000130: 7cc1 4fbd 3d82 ab3d 2172 c8bc 76b0 493d
00000140: 18da 61be 2b9d ac3e ef93 a53e 40df ea3d
00000150: cf31 c1bb 7a29 353e e708 c43e 0325 643d
00000160: 51dc 3cbd 6988 8c3d 3419 313e 63d8 73bd
00000170: 7729 b63e d541 fa3d 82c7 a0be 0c7e 923e
00000180: aafa 493e 2dee 193e 2315 7b3e f4d6 583e
00000190: 72a7 05be aca8 e0bd c70c 71bd aa62 f6bd
000001a0: e310 9b3d a41e d8bd 277a 8b3e ecf4 52be
000001b0: 437d 853d f436 5b3e ac58 86be 3474 613e
000001c0: 5fc6 93be 912b 953e 9b30 25bd 954c 8fbe
000001d0: 9ec1 e53c 6565 9b3e 6b2a 823d 5668 80be
000001e0: c049 d63d 1ee9 cd3e debb 633e 06c5 943e
000001f0: 1912 043e 2b7b b53c 6cd8 903e 7023 bc3e
00000200: c72c 9cbd 47a3 c03e ec15 373e 6854 a8bd
00000210: 39b4 f73c 43cc 7ebe 95d7 31bd 73f7 873e
00000220: 56e3 113e e8a0 08be 8e9e a73e d653 2c3e
00000230: caaf a53e 58f7 59bc 33de a6be b77d 79be
00000240: 495b e33d f1e6 38bd f086 a33d fefc fa3d
00000250: c5af 383e 130c 2a3e b52f 64bd f2b9 8b3d
00000260: 5523 46be a5a7 473e e650 1c3e 126a 31be
00000270: 4661 66be 7f2c 0f3e c70c 1ebe f197 66be
00000280: acce 4bbd ec94 903e a3f1 a43e a964 653e
00000290: 2e6a 983e abfc 2c3e 9ee6 4f3e 6750 643d
000002a0: 9822 4abe 788a 483d 0248 403d aae1 0abe
000002b0: da03 a23e da58 12bd 47f0 43be 9b5d 873e
000002c0: cd52 383d 46d7 913d 8de2 0f3e 7a02 6b3d
000002d0: bb0c 18be 7bea bc3e bb42 23bd f516 d63d
000002e0: 3c7f 753e 1006 343e b617 873e 792a 8f3e
000002f0: 608b 8ebe 6c10 013e 80e9 1e3e 1123 efbd
00000300: f3fb 0f3e 211a 0cbe f2a3 4cbe 8226 463e
00000310: 110d 433e 0ca9 2ebe 7179 953e e6f0 983e

rede.2.bias f4 [10]
0.24912874 -0.0758906 -0.12362263 0.009414468 0.19343142 0.027398897 0.17189401 0.248376
0.05484929 0.29226044
00000000: 9b1b 7f3e 886c 9bbd dd2d fdbd 243f 1a3c
00000010: e312 463e a773 e03c fc04 303e 4756 7e3e
00000020: a6a9 603d 29a3 953e

rede.4.weight f4 [2, 10]
0.20376305 -0.13317913 0.02210352 0.16437398 -0.26193514 0.32838818 -0.17619513 0.16585985
-0.21543767 -0.41020742 -0.18682463 0.15377273 -0.28299084 -0.23623861 0.21272011 -0.110870086
0.29519102 -0.39228645 0.4249174 0.4690803
00000000: 43a7 503e 1c60 08be 7112 b53c a751 283e
00000010: 5d1c 86be 7f22 a83e 7f6c 34be 2ad7 293e
00000020: b19b 5cbe b506 d2be f54e 3fbe 9976 1d3e
00000030: 2de4 90be 89e8 71be 4dd3 593e db0f e3bd
00000040: 4723 973e c5d9 c8be c68e d93e 4b2b f03e

rede.4.bias f4 [2]
-0.23737037 0.46692988
00000000: 3811 73be 6f11 ef3e
